best_model.pth (torch, 16356 bytes, 8 tensors)

encoder.0.weight f4 [16, 3, 3, 3]
00000000: 54c5 7f3d 3e7e a23d 22a2 d7bd 7be4 063e
00000010: da5e a03d 8030 dcbc d02a 593d 6eb0 893d
00000020: fe46 30be 469e 813d 68bd af3c debe 3dbe
00000030: 7cad 9abd 4c41 2cbd a686 ea3d 4be7 393e
00000040: 482c 27bd 52c8 bf3d 1a75 9bbd c24f d63d
00000050: 181b 653d 7627 bdbd d030 66bc bad6 43be
00000060: d7f0 2f3e 7856 903c 38b2 5cbd e5fc 1e3e
00000070: 702c 313c acdf 2abe ec28 c1bd b765 293e
00000080: 5c04 95bd b80d fcbc dcc7 1ebe d4ce 68bd
00000090: 6e77 babd 689d 85bd 8f12 e8bd 161d 893d
000000a0: eaaa ae3d e42c 9abd 5315 1b3e 7cb2 2abd
000000b0: 2f34 2b3e eed2 993d d410 233d 23d3 f6bd
000000c0: cfba 133e 4e3f ef3d 25d1 403e 4ceb 16bd
000000d0: a116 003e c8e7 ca3c ccdd 53bd 4ccd 6d3d
000000e0: fe92 8a3d 26b2 b1bd 8369 2fbe a751 333e
000000f0: bbec 143e 4f8c 20be c023 6cbd 6cd5 123d
00000100: de2b a03d 60bc 85bc 3c89 41bd 24cc 8dbd
00000110: 0625 83bd 314c 2f3e 4417 ccbd 860b 10be
00000120: 6abc 0cbe 82d7 db3d 3c51 1cbe d68f f43d
00000130: 783e dbbd 47f8 2ebe 6d6e ddbd 5e07 d0bd
00000140: 049e e7bd deef 893d 21de 2e3e 4084 11bc
00000150: 7206 16be 4fa2 a8bd f2ff 9e3d 0805 f0bc
00000160: 8ac5 fd3d f7eb 44be fbf6 e4bd 81ab 1e3e
00000170: 55eb 31be fa91 a53d fb99 a4bd 60e9 97bd
00000180: a2e7 a63d 8b5d 333e 6f10 f0bd b6a0 ce3d
00000190: f8b9 49bd e121 1f3e 03a5 353e 697c 2c3e
000001a0: 9269 dc3d 0f62 15be 8770 043e 7a11 893d
000001b0: 189d 14be 003e dfb9 407b 683b 10af 17be
000001c0: 8e2f edbd 56b5 c23d f63e a03d 2a6e b33d
000001d0: 36ec d5bd 5cff bcbd ab62 22be cc4e 643d
000001e0: 185a 2c3d 9ee3 873d 5d66 103e 00d0 f4bc
000001f0: d0b0 293c 32f4 9e3d 40c8 043d c239 933d
00000200: 3348 2b3e 0097 aabb 2461 7f3d 4077 c9bb
00000210: 94e2 26be 9d63 00be b423 3ebd f965 2ebe
00000220: 535e 40be 3089 73bd a4a3 553d 227a 80bd
00000230: 4622 15be d8a9 81bc ed21 f4bd 18df 33be
00000240: 6a27 e8bd c0da 373c 820d 41be 6045 b9bc
00000250: 57d0 363e de73 9e3d c0e4 d4bb 5e39 bb3d
00000260: 1dec f5bd 8dec 1ebe a9f8 19be 70a0 8ebc
00000270: ff20 f0bd d779 a0bd a72e 373e 2074 15bc
00000280: 45a6 f0bd 54f0 483d 006c 05bb 7ad6 e03d
00000290: e258 17be 50ef b1bc 00a3 d73a 922b 26be
000002a0: 4eeb 0ebe b208 cf3d 003a 83bd f839 4ebd
000002b0: d37f fabd cf3c 36be a49c 11bd 7012 1abd
000002c0: ae02 8c3d 20e8 33bd 94fe 553d 6bf6 94bd
000002d0: a987 223e d4c6 0fbe 78db febd a229 9cbd
000002e0: 749c 31bd df10 243e ac88 edbd 3c87 1cbd
000002f0: e187 bdbd b726 92bd e8e7 0dbd 9ece 40be
00000300: 0984 3e3e b3a6 e5bd dda3 193e 30de 573d
00000310: 20d4 f43b 17aa 05be 77f6 063e bc77 0fbd
00000320: f0cd 203d 6103 1ebe 5bdf 1a3e ff59 283e
00000330: e5e8 373e 205b b73b 2d52 433e 7002 af3c
00000340: 4544 43be c8d7 3dbe de60 923d fde0 403e
00000350: 5c35 64bd 0050 023c b63d d33d dac6 9cbd
00000360: 4a4f e83d dcf0 0f3d 0023 073a 63b5 403e
00000370: d8f6 d9bc dcfa fabd c27d 8a3d 58a5 513d
00000380: cb6d 013e 8130 0b3e f477 623d 6e44 e3bd
00000390: a81d c4bd 28f2 8fbc d7a3 093e a87c f2bc
000003a0: 2869 0fbe e292 ebbd 4b90 213e 8866 243d
000003b0: 6677 d83d 5c81 cfbd 4a6c 8b3d b1ee 133e
000003c0: 3880 c03c 2025 d53c 9072 c1bc ef60 37be
000003d0: 897c 07be 7aa8 ee3d 1a0f 983d d22d e13d
000003e0: bafc a1bd 3c79 7dbd 8cb7 dfbd 9079 7fbd
000003f0: cfb7 cbbd 0d83 203e 907a a7bc b720 2d3e
0.062444046 0.07934235 -0.10528971 0.13173096 0.078305915 -0.026878595 0.053019345 0.067231044
-0.17214581 0.063290164 0.02145262 -0.18529841 -0.07552621 -0.04205446 0.114514634 0.18154638
-0.040813714 0.0936438 -0.07590695 0.10464431 0.05593404 -0.09236042 -0.014049724 -0.1912488
0.17181717 0.017619357 -0.0538809 0.15526159 0.010813817 -0.16686887 -0.09431633 0.16542707
-0.07276222 -0.03076826 -0.15505928 -0.05683787 -0.09104811 -0.065241635 -0.11331665 0.06695001
0.08528693 -0.075280935 0.15144853 -0.041674122 0.16719125 0.07510935 0.03981097 -0.1205199
0.1442673 0.11681996 0.18829782 -0.03684549 0.12508632 0.024768725 -0.051725194 0.058057114
0.06766318 -0.08676557 -0.17130093 0.17511617 0.1454343 -0.15678523 -0.05765128 0.035848066
0.07820867 -0.016325176 -0.047250018 -0.06923702 -0.06403546 0.17118908 -0.09965375 -0.14066896
-0.1374375 0.10734464 -0.15265363 0.11941497 -0.10705274 -0.17086898 -0.10812078 -0.10157655
-0.11309436 0.06735204 0.17076923 -0.0088816285 -0.14650896 -0.08234083 0.077636614 -0.029299274
0.12391193 -0.19230638 -0.1117992 0.15495111 -0.17374928 0.080844834 -0.08037182 -0.074175596
0.08149649 0.17516153 -0.117218845 0.10089247 -0.04924962 0.15540268 0.17738728 0.16844334
0.107623234 -0.14588188 0.12933551 0.066927865 -0.14513052 -0.00042580068 0.0035473853 -0.14812875
-0.11581336 0.09507243 0.07824509 0.087612465 -0.10445444 -0.092283934 -0.15857951 0.05573921
0.042078108 0.066352114 0.14101548 -0.029884338 0.010357097 0.0776142 0.032417536 0.07188751
0.1672676 -0.005205989 0.0623485 -0.006148249 -0.1629737 -0.12538 -0.046420768 -0.17031087
-0.18785982 -0.059457004 0.052158013 -0.06273295 -0.14563856 -0.015828058 -0.11920533 -0.17565572
-0.11335643 0.011221588 -0.18852809 -0.022616088 0.17852913 0.07736944 -0.0064969957 0.09141801
-0.12007926 -0.15519924 -0.15036263 -0.017410487 -0.117250435 -0.07835739 0.1788889 -0.009121925
-0.117504634 0.04905732 -0.0020358562 0.10978408 -0.1478 -0.021720558 0.0016451776 -0.16227558
-0.13956949 0.101090804 -0.06407547 -0.050348252 -0.12231412 -0.17796634 -0.035549775 -0.03761524
0.068364486 -0.043922544 0.052244738 -0.07273563 0.15872063 -0.1404069 -0.12444204 -0.07625128
-0.043362096 0.16022061 -0.11598334 -0.038214907 -0.092544325 -0.071362905 -0.03464499 -0.18828818
0.18605055 -0.11213436 0.15003915 0.05270213 0.0074715763 -0.13053165 0.13179956 -0.035026297
0.039258897 -0.15430976 0.15124266 0.16440581 0.17959936 0.0055955797 0.19074316 0.021363467
-0.19069012 -0.18539345 0.07147382 0.18835826 -0.05571495 0.007953644 0.10314505 -0.076551154
0.11343248 0.03514181 0.0005155057 0.18819194 -0.026606962 -0.12254879 0.06762268 0.051183075
0.12639539 0.13592722 0.055290177 -0.11097036 -0.09575969 -0.017571524 0.13441406 -0.029600456
-0.14004958 -0.11502625 0.157777 0.040136844 0.105696484 -0.10132095 0.06807764 0.14446522
0.02349864 0.02601868 -0.023614198 -0.17908071 -0.132311 0.11653228 0.074247554 0.10995068
-0.07909532 -0.061883196 -0.10923681 -0.06237179 -0.09947168 0.15674992 -0.020444185 0.16907011

encoder.0.bias f4 [16]
00000000: ae78 913d 058b 1dbe 326b e53d 7c13 fabd
00000010: 3831 1abd c028 06be e68f aa3d b3ea 233e
00000020: 1c53 28be 90d9 cf3c 80c8 c43c c4ec e0bd
00000030: 70bd 563c 9b39 323e 6052 9e3b b89c bcbd
0.07103096 -0.15385063 0.112020865 -0.122107476 -0.037644595 -0.13101482 0.08328228 0.160075
-0.16437954 0.025372297 0.024021387 -0.109826595 0.013106689 0.17404787 0.004831597 -0.09209579

encoder.3.weight f4 [8, 16, 3, 3]
00000000: d280 0e3d 48ce 1c3c b8c3 27bd f7a3 a6bd
00000010: fa5d 92bd 593e a63d 90c5 ddbc 42cf 673d
00000020: 0fb2 90bd b092 2a3d 1692 82bd 754e a93d
00000030: 5e63 183d c87e 72bc c8a6 43bc f04f d63c
00000040: 00c4 e0b8 aefa 7b3d 9842 1d3c fc5a 86bd
00000050: 4019 243d 120c 703d daa6 5f3d 5c81 f2bc
00000060: 65b8 9f3d 2f4e 9a3d a3d3 8ebd 9e7a 47bd
00000070: e6d8 0a3d 023a 093d 05e7 903d c61d d3bc
00000080: 43ef 4fbd 732b 9fbd 0bb4 9ebd a079 563c
00000090: 7097 a83c 4cb4 a33c b3a2 12bd e244 88bd
000000a0: 090f 813d 8e4a 503d 2696 34bd 80dd 783a
000000b0: 4304 833d 005d 5e3b 9b46 15bd cbb8 7abd
000000c0: b033 95bc 0bac 08bd 46ea 153d 40b0 5dbd
000000d0: b1c2 873d bbbc 2fbd e265 393d c895 5bbc
000000e0: c332 0cbd 1e5a 21bd f89f 5bbc ea9e 383d
000000f0: d834 2a3c 5a1f 203d a026 4ebc 6b6b 1cbd
00000100: a6bc 1abd cce8 8cbc 80b4 203a a64b 85bd
00000110: 57c0 a3bd 48f1 3abc a6eb 57bd 2bb4 85bd
00000120: ba75 9bbd 986a 6e3c 288a 01bd 1b16 76bd
00000130: 9684 81bd b802 223c 5cd1 e43c f8eb 1e3d
00000140: 3c0d 9ebd b0ca 21bd 632c 7ebd ecaf 98bd
00000150: 8372 a33d 5232 483d be01 86bd 04ad 82bc
00000160: 55b6 893d a6d6 513d 0964 973d 80b5 13bc
00000170: 136e 953d 0399 1bbd 76cf 6e3d 60ff f1bc
00000180: 1071 66bd 0008 61bc 60a5 093d 149b ec3c
00000190: fe04 573d d2a2 713d 349c e23c 8838 0a3d
000001a0: c326 5dbd 4c2e e13c ca28 5e3d 807b 16bb
000001b0: 1a3f 293d 93eb 20bd 7315 42bd e665 2c3d
000001c0: 2833 20bc e051 76bb 85bd 903d 52c2 193d
000001d0: d6e4 723d f449 93bc 22b7 313d 9620 16bd
000001e0: a40d cf3c f884 143d e8b5 03bc 8019 403c
000001f0: c0ca f23c 009c 1b3c 80e3 87bc fb26 963d
00000200: 48dc 233d 9c27 a9bd 0039 b1bc 4b97 913d
00000210: e2f0 773d 5b7d 813d 9057 a8bc 803f 2dbb
00000220: 9480 fc3c bc02 9b3c 769b 5fbd f711 823d
00000230: b0f8 a93c 76b2 233d 48b8 5fbc e34e 97bd
00000240: 2ea1 113d 6063 d03c a693 d4bc 5639 78bd
00000250: 365c 77bd 480e 703c de91 133d 3c05 a53c
00000260: 1a67 4b3d f6e1 123d c0f2 57bd 50ce 68bd
00000270: 6015 8fbc 40f6 83bd 29b6 a23d 80cc 153b
00000280: 80fa d93c 4399 9dbd c05d 6b3c edbc 963d
00000290: 8cfb 953c 282a 1cbc 8a45 9cbd d00e 983c
000002a0: 9e3e 13bd 98cd 07bc f629 9dbd 605d d63c
000002b0: 8e26 563d 1cb3 82bc e3de 11bd 05c7 833d
000002c0: 2048 7dbc 14de d83c c193 853d b052 d33c
000002d0: cea4 473d 5432 f23c c25e a6bd 2654 343d
000002e0: 00ce d9bb b093 72bd b0c4 ba3c e0de 123d
000002f0: f8e8 3abc 40b9 d23c 825a a1bd fdad a93d
00000300: 4ce0 fc3c 1bb8 0dbd 1695 dbbc e426 c63c
00000310: 72ff 523d c7f9 833d b277 7b3d 5867 013c
00000320: 121d 553d 805c 36ba 06d8 2f3d c4e4 983c
00000330: cbf0 95bd 23d3 a7bd d5fd a73d a05c 6dbb
00000340: 4383 20bd 51db a23d f9e3 9c3d 0563 a73d
00000350: 4cd6 f13c 5b9b a0bd 0ddc 913d 911a a03d
00000360: 30be cc3c 9887 24bd 0b5b 26bd 1bb8 19bd
00000370: 8c26 8abd 801b d83c 5088 92bc 503b 2a3d
00000380: 208a b6bc 8078 1e3a e5c8 a33d a49c 8fbd
00000390: db9e 2ebd 2bdd 6cbd d044 fc3c 4a56 0d3d
000003a0: 5b72 17bd d2a8 003d ae91 79bd 5dd3 a73d
000003b0: de0a 62bd 58e2 61bc b16a a83d b6a3 033d
000003c0: 3488 a63c 185c 7d3c 9c95 92bc c0a7 0d3d
000003d0: 04d3 aa3c f230 443d ae14 4dbd c3bf 63bd
000003e0: 2e63 733d f228 2b3d abe1 49bd 7b0a a8bd
000003f0: e6c8 9ebd 9815 35bd f656 dfbc 1cfb 8dbd
0.03479082 0.009570666 -0.040958136 -0.081367426 -0.07146831 0.081173606 -0.027071744 0.05659414
-0.07065212 0.0416438 -0.0637552 0.082669176 0.03720414 -0.014800735 -0.011941619 0.026161164
-0.0001071766 0.061518364 0.009598397 -0.06560323 0.040063143 0.05860526 0.05460248 -0.029602699
0.07798842 0.075344436 -0.0697396 -0.04870092 0.033898257 0.033502586 0.070753135 -0.025771033
-0.050765287 -0.07771959 -0.07749184 0.013090521 0.020580024 0.019983433 -0.035799693 -0.06653763
0.06301696 0.05085235 -0.044088505 0.0009493455 0.06397297 0.0033929944 -0.036444288 -0.06121139
-0.018213123 -0.033367198 0.036600374 -0.054123163 0.06628931 -0.042904597 0.04526318 -0.01340241
-0.034228098 -0.039392583 -0.013404839 0.045073427 0.0103885755 0.0390924 -0.012582451 -0.03818838
-0.037777565 -0.01720085 0.0006130412 -0.065085694 -0.0799567 -0.011410065 -0.052714966 -0.06528505
-0.07590814 0.014551781 -0.031625897 -0.060079675 -0.06324117 0.0098883435 0.027931862 0.038799256
-0.07717368 -0.03949994 -0.06205405 -0.074554294 0.07980826 0.048876114 -0.06543301 -0.01595164
0.0672423 0.051230095 0.07392127 -0.009015441 0.072963856 -0.03798772 0.05830332 -0.029540718
-0.05626017 -0.0137348175 0.03360498 0.02888254 0.052494995 0.05899317 0.027662374 0.03374532
-0.053992044 0.027487896 0.05423812 -0.0022961795 0.041319944 -0.03928716 -0.047383737 0.042089365
-0.009777822 -0.0037585422 0.07067398 0.037538834 0.059300266 -0.0179796 0.04338754 -0.03665217
0.025275059 0.03625962 -0.008038975 0.01172483 0.029637694 0.0094976425 -0.016587973 0.07331654
0.040005 -0.08259508 -0.021633625 0.07108935 0.060532458 0.06322738 -0.020549566 -0.0026435554
0.03082303 0.018922202 -0.05459162 0.06351083 0.020748466 0.039965115 -0.013654776 -0.07388093
0.035554104 0.02543801 -0.02594931 -0.060601555 -0.060390674 0.014651842 0.03602778 0.020144098
0.049658872 0.035860024 -0.05272174 -0.05683738 -0.017466247 -0.06443453 0.079449005 0.0022857487
0.026608706 -0.07695248 0.014365613 0.073602535 0.018308423 -0.009531535 -0.07630451 0.01856175
-0.03594839 -0.008288763 -0.07674019 0.026167572 0.052282862 -0.015954547 -0.035612952 0.06434444
-0.0154590905 0.026473083 0.065223224 0.025796264 0.048741154 0.029565014 -0.08123542 0.044025563
-0.0066468716 -0.059222877 0.022798866 0.03585708 -0.011408083 0.0257231 -0.07878591 0.08285139
0.030868672 -0.034599405 -0.026804488 0.024188466 0.051513143 0.064441256 0.061393447 0.007898174
0.052029677 -0.00069565326 0.042930625 0.018663771 -0.07321318 -0.08194568 0.082027115 -0.003621854
-0.03918768 0.079519875 0.0766067 0.08173183 0.02952113 -0.07842132 0.071220495 0.07817567
0.024993032 -0.040168375 -0.04061417 -0.037529092 -0.067456335 0.0263803 -0.017887264 0.04156047
-0.02228266 0.00060451776 0.07997302 -0.07012299 -0.042631965 -0.05782811 0.030794531 0.03450612
-0.036974292 0.031411 -0.060929947 0.08194611 -0.055186145 -0.013786875 0.08223475 0.03213855
0.020328619 0.015463851 -0.017893605 0.034583807 0.020852573 0.04789824 -0.05006855 -0.0556028
0.059420757 0.041787095 -0.04928748 -0.08205124 -0.07753162 -0.044210047 -0.027263146 -0.06932661

encoder.3.bias f4 [8]
00000000: d3a6 14bd 98e8 2abc 3fe4 99bd 0ca5 e3bc
00000010: 5872 11bc a6ae e7bc 4aaf 313d dee5 0ebd
-0.03629191 -0.010431431 -0.075142376 -0.027788661 -0.008877359 -0.028281521 0.04338006 -0.034887187

decoder.0.weight f4 [8, 16, 3, 3]
00000000: bad2 593d 472b a33d e295 7c3d 644b 90bc
00000010: 8850 2dbc 3ad8 4d3d 336b 31bd 4cfc 99bd
00000020: b9d1 873d de86 78bd 2e07 17bd d902 a83d
00000030: 1386 72bd 5369 68bd 362b 0e3d dcbd f6bc
00000040: ec23 e5bc 78c9 443c 2dd6 913d c09a 06bd
00000050: a2ab 693d 2ae5 053d 3299 473d 5f9b 9fbd
00000060: d457 9c3c 7610 723d 2dbf a63d 6353 1ebd
00000070: 418c a43d 694c 873d 8085 6d3a e896 1f3d
00000080: 200b 1c3d 54c7 8cbc 90bb b7bb a258 0b3d
00000090: e168 a73d 7cd8 f53c c680 f8bc 4368 55bd
000000a0: 0ad8 2c3d 8ca7 fc3c 1aad 233d 2032 6cbd
000000b0: 1c20 f93c d25b 2b3d 10d1 c7bb 00c0 4c3a
000000c0: 6c0f c93c 445e e63c 98e0 043c 3c41 f33c
000000d0: 24ae df3c 16db 8abd 3431 a3bc e00b 03bb
000000e0: db2e 903d ead9 483d 00dc c7bb 105f a93c
000000f0: f6a8 6d3d 0283 423d 00a7 083b d447 db3c
00000100: 9a09 403d b895 243c 66bc 66bd 6ec7 05bd
00000110: 4847 7ebd 2b0f 35bd e0ad d3bc e842 5c3c
00000120: cc2b b73c 3be1 a8bd 6c99 df3c 801a 3e3b
00000130: abcf 99bd 2a96 333d b6b3 0a3d 6b7e 71bd
00000140: ca02 7e3d 338a 18bd b9c0 953d 7235 6a3d
00000150: 488b 74bd d039 123d e0eb eebc 46c9 d4bc
00000160: 5b85 96bd a08d a4bd 187a 1bbc df3a 883d
00000170: 668e a8bd 4cb3 e2bc 04a6 88bd faad 233d
00000180: bcd2 f4bc 7630 b6bc e80a 0a3d 4035 cabb
00000190: e6ea 4c3d 4070 adbb cc81 c2bc 8254 003d
000001a0: c841 5bbc 2218 553d 7ae2 713d d07a 243d
000001b0: cacc 323d 4a8a 743d 800a 5cbb 221e 2a3d
000001c0: 5aea 573d fa4b 6c3d 98fb 01bc 6245 a3bd
000001d0: ddba a63d a5a9 a73d d086 263d 1af6 313d
000001e0: ae07 4bbd 6ac0 83bd 5896 49bc 03f7 a9bd
000001f0: 7282 6b3d 700b 3dbd 9c6a a7bc 6a64 773d
00000200: c077 75bc 9deb a83d be0d a3bd f6c6 77bd
00000210: e431 823c 8909 873d de5c 30bd 3639 debc
00000220: c02e 4c3c 37f3 a1bd b54f 8b3d 803e d03c
00000230: 54e8 8cbc 476f 94bd 00fe 5a3a 201c 34bc
00000240: f047 a5bb 4b72 4dbd 70f5 63bd 608c c43c
00000250: 90e2 2cbd 06c1 56bd 085d 233d 703a 08bd
00000260: 1aa4 213d f0db f0bc c6ef babc 6734 87bd
00000270: 7015 943c c7da 9e3d 1acc 523d b820 003c
00000280: 6828 32bd 80fd 453b 820d 653d 5a3a 6b3d
00000290: e637 3fbd d054 90bd d2c1 3e3d d07d c03c
000002a0: 5088 82bb e029 713c 2ae9 4b3d 209b c9bc
000002b0: b898 27bd 28bd 06bc 2817 3dbd 7356 873d
000002c0: 0ad1 233d e911 a73d 30ab 813b 6008 6ebd
000002d0: b88d 263c d07d c53c b407 fe3c e639 223d
000002e0: d33a 7dbd 034f 3abd 5813 30bd b0d4 86bd
000002f0: 806d 55bd b892 773c a01c 023d 17dc a73d
00000300: e0de 18bd a4d8 853c 4171 963d bce8 983c
00000310: 804c 34bb d033 13bd 61e6 9e3d f063 11bd
00000320: 2b08 7abd 4caf d03c 2f40 93bd 5a89 8abd
00000330: c015 84ba a096 febc b056 df3c 3829 403c
00000340: 082f 43bd 70da b9bc 8cca 9abd ee3b 69bd
00000350: 8e73 6ebd bc2c b23c d36d 3abd 0c58 a9bc
00000360: a21f 493d b0f1 81bb 82a3 613d ba10 553d
00000370: c7e9 833d ffe9 89bd d8c1 7ebc 4a19 603d
00000380: 236f 1abd a696 24bd e8a5 7ebc 3222 463d
00000390: 8961 863d 7a63 163d 7804 11bc f9ec 913d
000003a0: 5e44 66bd e8a0 7abd 0045 db3b 967c 5bbd
000003b0: a2f8 713d 36a8 103d e945 8f3d 10f3 3cbd
000003c0: 0066 c93b a0d7 57bb 7652 c8bc 236b 42bd
000003d0: 7095 1ebd 6079 773c d891 3fbd f06a 15bd
000003e0: 8074 28bd d422 a23c 545e fa3c d8ad 1cbd
000003f0: b6d9 0bbd 3ab2 8cbd 2872 483c e464 f33c
0.05317948 0.07967239 0.061666377 -0.017614074 -0.010578282 0.050255038 -0.043315124 -0.07518825
0.06631798 -0.060675494 -0.03687208 0.08203668 -0.059209894 -0.05674107 0.034709178 -0.030119829
-0.02797123 0.0120109245 0.07120929 -0.032862425 0.057048447 0.03268925 0.048730083 -0.077933066
0.019084848 0.05909773 0.08141933 -0.038653743 0.08034564 0.06606371 0.00090607256 0.038962275
0.038096547 -0.01718489 -0.005607076 0.034020074 0.08174301 0.030010454 -0.030334841 -0.052101385
0.04219822 0.030841611 0.039960004 -0.05766499 0.030410819 0.041835614 -0.0060979202 0.00078105927
0.024543487 0.028121121 0.008110188 0.029694192 0.027304716 -0.067800686 -0.019920923 -0.0019996092
0.07040187 0.049035944 -0.006099224 0.020675212 0.05802246 0.04748822 0.0020851493 0.026767649
0.046884157 0.010045461 -0.056332015 -0.032660894 -0.062079698 -0.04420392 -0.025839746 0.013443686
0.022359751 -0.08246084 0.027294837 0.0029007494 -0.07510313 0.04384438 0.033862792 -0.058958452
0.06201438 -0.037241172 0.073121496 0.057179876 -0.05970314 0.035699666 -0.029165208 -0.02597488
-0.07349654 -0.08034825 -0.009489559 0.06651854 -0.08230285 -0.027673386 -0.0667229 0.03996084
-0.029885642 -0.022239905 0.033701807 -0.0061708987 0.050028704 -0.0052929223 -0.023743533 0.031330593
-0.013382383 0.052024968 0.059053876 0.040156186 0.043652333 0.059702195 -0.0033575594 0.041532643
0.05271373 0.057689644 -0.00793352 -0.07972218 0.0814111 0.08186654 0.04065591 0.04344759
-0.04956787 -0.064331844 -0.012303911 -0.08299067 0.05749745 -0.046153486 -0.020436577 0.060398497
-0.014982164 0.08248065 -0.079616055 -0.06049248 0.01589293 0.065936156 -0.043057315 -0.02712689
0.012462318 -0.07907718 0.06802312 0.025420427 -0.017200626 -0.07247787 0.0008353889 -0.010993034
-0.005043976 -0.050157826 -0.05565399 0.023992717 -0.042208254 -0.052430175 0.039883643 -0.033258855
0.03946314 -0.02940175 -0.022819411 -0.06601792 0.018076628 0.07756572 0.051464178 0.007820301
-0.043495566 0.0030210912 0.055921085 0.057428695 -0.04668417 -0.07047427 0.04657156 0.023497492
-0.003983535 0.014719456 0.04978291 -0.024610102 -0.04091713 -0.008223809 -0.04616466 0.06608286
0.039994277 0.08157713 0.0039571747 -0.058113456 0.010165624 0.024107844 0.031009533 0.039605998
-0.061823677 -0.045485508 -0.042987198 -0.06583536 -0.05210638 0.015110664 0.03176558 0.08196276
-0.037321925 0.016338654 0.0734582 0.018665664 -0.0027511418 -0.035938084 0.07758785 -0.0354957
-0.061042946 0.025474213 -0.071899764 -0.06764479 -0.0010077283 -0.031077683 0.027263016 0.011728577
-0.047652274 -0.022687167 -0.07558164 -0.05694192 -0.05821567 0.021749847 -0.045514893 -0.020671867
0.049102433 -0.003965579 0.055087574 0.052017905 0.06441074 -0.06734084 -0.015549146 0.054711618
-0.037703644 -0.040182732 -0.015542485 0.048372455 0.06561572 0.036715962 -0.008851163 0.07125277
-0.056217544 -0.06118861 0.006691575 -0.05358561 0.059075005 0.03531667 0.06995756 -0.04613024
0.0061461926 -0.003293492 -0.024453383 -0.047465455 -0.038716733 0.015104622 -0.046769947 -0.036478937
-0.041126728 0.019791998 0.030562557 -0.038251728 -0.034143172 -0.068699315 0.012234248 0.029711194

decoder.0.bias f4 [16]
00000000: a0c2 eebc b34d 34bd c0f9 b0ba e0a5 31bb
00000010: 697c a93d 38c1 04bd 26f0 55bd d6e2 02bd
00000020: 2261 713d b189 a73d b55f a33d ed5c 943d
00000030: 33eb 1cbd 5091 92bc d2cc 2f3d 3242 1d3d
-0.029145539 -0.044019412 -0.0013502166 -0.0027106926 0.082756825 -0.03241083 -0.052230977 -0.03195461
0.058930524 0.081805594 0.07977239 0.07244287 -0.03831024 -0.017891556 0.04291994 0.038393207

decoder.2.weight f4 [16, 3, 3, 3]
00000000: 24a0 35be 1072 c1bc 380c 483d 9001 15bc
00000010: 7860 86bd 8b2c 1c3e 308a 033d 2f07 01be
00000020: be06 a23d 5080 1b3c 67c8 11be cadd ce3d
00000030: 5d33 163e 1697 e43d 60dd 833c 2f9e 293e
00000040: 92a3 25be f02c 90bc 9420 dbbd ce74 c93d
00000050: 5f79 e2bd 627e 11be a794 32be fc09 123d
00000060: fbbc 1e3e 14de 21be 4029 26bd 4a6e ad3d
00000070: 89fc 1bbe f01a 5d3c 8485 05bd c80d 0bbe
00000080: 5a7e 8a3d 4cab 4abd 8117 3bbe 70cc c0bd
00000090: e7ce 1a3e fa40 09be d219 d53d 4684 fd3d
000000a0: 6867 003d 1bc5 3d3e 3ac0 1dbe 0958 403e
000000b0: d184 44be b8cf a5bd 20d6 e1bd 048e 433d
000000c0: 9798 18be a211 41be 1c12 643d e989 1b3e
000000d0: 201c e4bb 7621 e73d 3f4e 113e 0a6b a03d
000000e0: f881 b7bc 1394 373e b8ea 7fbd 843b b8bd
000000f0: 225b 9f3d 0aa5 eabd 1660 41be f2f8 c53d
00000100: 9004 27bc 2088 c6bb dcec 493d 5e06 02be
00000110: 763b 983d b3ff 193e 3d79 a7bd f0ff efbc
00000120: 70ad 68bd 2b84 373e 481d 993c ec55 1cbe
00000130: 5892 8bbc de89 e93d a0d7 c7bb 807e 043b
00000140: c89f ba3c 9ba1 243e f429 5abd dccd 3ebe
00000150: 469d 25be 7c27 e6bd 3a3b a8bd 388f f8bd
00000160: 0c15 1c3d 60eb 77bd 3c9c 493d f443 25be
00000170: 203d dfbd ff68 403e b02e 1d3c 013e 1a3e
00000180: 5088 03bc f354 2f3e 8081 7e3c 4f67 41be
00000190: c350 403e e6de 34be 31b3 353e 0077 af3b
000001a0: 8b76 023e c76c 143e 63c4 073e ecff 543d
000001b0: 90ce babd 27ac 2d3e c0a4 7fbc d932 c9bd
000001c0: ddca 24be 22f0 ac3d e920 263e f939 b4bd
000001d0: d038 eebd 3cd5 fabd c147 313e f781 403e
000001e0: 7a67 c23d acdf 13bd 5bea 1dbe be9c 853d
000001f0: 96b2 2dbe e8f7 383d d671 923d 9ddd 0c3e
00000200: ca36 833d 87da 96bd 8848 40bd 74ac 31bd
00000210: be8d 8b3d 9bb3 3f3e d853 a33c 40e2 20bc
00000220: a8cc ce3c b48b 2c3d 78bb 11be 1636 17be
00000230: 068c c63d e35e 1bbe 5b78 2d3e 700c 2abe
00000240: 96db c03d 779d 3a3e adba 323e 3725 31be
00000250: 9ec0 16be 3a4f 1bbe 6703 113e 13ae 0d3e
00000260: cc6d 2d3d b096 593c 602a 523d ffdd 393e
00000270: dcac 26bd 10ff f2bd d61e de3d 5a8c e03d
00000280: d71a 05be e75e 0c3e 9c4f 09be dc9c 183d
00000290: 6a5c ca3d 9673 f23d bfad fabd e693 933d
000002a0: d140 22be 8d3b dabd d1b2 c7bd d886 183d
000002b0: 9b4a bbbd 2e15 8dbd 6bb3 313e 7cbc 05bd
000002c0: 46f0 da3d 464a c73d 200b d3bb 5647 a4bd
000002d0: fa98 ec3d 2b3f dbbd 0814 5c3d bd79 f7bd
000002e0: 5ed0 fe3d 2c08 85bd 0043 013d 8cea 7c3d
000002f0: de17 85bd d68c dfbd 5ef3 ee3d fe2d 0cbe
00000300: 4cb7 003d 45e6 ecbd a7c5 3c3e e8fb b03c
00000310: 8159 413e 022f eb3d 9046 5abc 956e 3a3e
00000320: 500c b4bd 50e3 5e3d 9b59 bbbd 1114 123e
00000330: fcce 0f3d d484 1bbe 3c53 04bd f001 743c
00000340: cb4f 263e 8aaa e5bd 8f9b 203e c612 14be
00000350: d0e6 c5bd aa5b d73d 0980 073e eab1 ae3d
00000360: 08bd 57bd 405d 9dbb 13d6 02be 4a06 a83d
00000370: 806a 46bc 1038 f63c 0abe bb3d 0a8f d23d
00000380: 40db f5bc 86c9 2bbe ade1 063e 40d0 873b
00000390: 7042 06bc 01c6 223e a04d cbbd 08d5 40be
000003a0: 2931 2c3e af0d 11be c0b7 e5bb 20bc a4bb
000003b0: 2fc2 a1bd 5675 d1bd e8ef febc ac82 3dbd
000003c0: f906 383e 8d62 083e 60d2 1a3d d068 d83c
000003d0: e67c 9f3d 7808 9fbc 4136 023e c3d9 0b3e
000003e0: 0436 e8bd 89ae abbd a03c 983b 6a22 3abe
000003f0: 2556 213e 7656 db3d 2843 eabc a163 233e
-0.1773687 -0.02361396 0.048839778 -0.009094611 -0.06561369 0.15251367 0.032114208 -0.12600397
0.07911442 0.009491041 -0.14236604 0.10100897 0.14668031 0.1116163 0.01609677 0.16564249
-0.16175678 -0.017599553 -0.10699573 0.09836732 -0.11058306 -0.14208367 -0.17439519 0.035654053
0.15501778 -0.15807372 -0.040566683 0.084683016 -0.15233053 0.013495192 -0.032598034 -0.13579476
0.06762381 -0.049479768 -0.18270685 -0.09413993 0.1511799 -0.13403693 0.104053155 0.12378745
0.031348616 0.18532221 -0.1540536 0.18783583 -0.1919129 -0.0809626 -0.11027169 0.04774286
-0.14901958 -0.18854383 0.055681333 0.15189327 -0.0069613606 0.11285679 0.14190005 0.07832916
-0.022400841 0.1792758 -0.062479705 -0.08995727 0.07781054 -0.1145726 -0.1888431 0.09666623
-0.010193959 -0.006058708 0.049298152 -0.12697741 0.07433216 0.15038948 -0.08177421 -0.029296845
-0.056806028 0.17921512 0.01869072 -0.15267152 -0.017037556 0.11403249 -0.0060987025 0.0020217001
0.022781268 0.16077273 -0.053262666 -0.18633217 -0.16173276 -0.11238 -0.082144216 -0.12136692
0.03810601 -0.060527205 0.049221262 -0.16139203 -0.109003305 0.18790053 0.009593651 0.15062715
-0.008028105 0.1712225 0.015533805 -0.18887065 0.18780808 -0.17663154 0.17744137 0.005354762
0.12740533 0.1449462 0.1325851 0.05200188 -0.0912143 0.16960202 -0.015603244 -0.098241515
-0.16093011 0.08444239 0.16223492 -0.0880012 -0.1163193 -0.122477025 0.17312528 0.18799578
0.09492393 -0.036101982 -0.15421431 0.06524037 -0.16962656 0.045158297 0.07150619 0.13756414
0.064069346 -0.073658995 -0.04694417 -0.043377355 0.068141446 0.18720858 0.01993744 -0.009819567
0.025244072 0.04212542 -0.1423167 -0.14766726 0.09694676 -0.15172915 0.16940443 -0.16606307
0.09416883 0.1822413 0.17454024 -0.17299353 -0.14721915 -0.15166941 0.14161454 0.13835935
0.04234104 0.013280556 0.051309943 0.18151091 -0.040692195 -0.118650556 0.10845725 0.1096427
-0.1299852 0.13708077 -0.13409275 0.037258968 0.09880908 0.118384525 -0.12240171 0.07205944
-0.15845038 -0.1065589 -0.097509034 0.037237972 -0.09145089 -0.06888805 0.17353599 -0.032650456
0.1069036 0.097309634 -0.006440535 -0.08021419 0.115526155 -0.10705408 0.05373004 -0.120837666
0.12442087 -0.06495699 0.031558037 0.06174712 -0.06498693 -0.10915534 0.11667512 -0.1368942
0.031424806 -0.11567358 0.18434773 0.021604493 0.188818 0.114835754 -0.0133224875 0.18206246
-0.08791411 0.054416 -0.0914795 0.14265467 0.035109505 -0.15187389 -0.03230594 0.01489304
0.16241376 -0.11214168 0.15684341 -0.14460286 -0.096631646 0.105155304 0.13232435 0.08530028
-0.05267051 -0.004802376 -0.12776975 0.082043245 -0.0121103525 0.03005603 0.091671064 0.10281189
-0.030011773 -0.16776094 0.13172026 0.0041446984 -0.008194551 0.15895845 -0.09926915 -0.18831265
0.16815628 -0.14165376 -0.00701043 -0.005027309 -0.07898366 -0.10227458 -0.031120256 -0.046267197
0.1797141 0.13318844 0.037798285 0.026417166 0.07787494 -0.019413218 0.12716009 0.13657288
-0.11338428 -0.08382899 0.004645899 -0.1817719 0.15755518 0.107098505 -0.028596476 0.15955974

decoder.2.bias f4 [3]
00000000: 058f a5bd 3e79 96bd 05ab 333e
-0.080839194 -0.07347344 0.17545708
