best_generator_model.pth (torch, 16476 bytes, 8 tensors)

encoder.0.weight f4 [16, 3, 3, 3]
0	0x3d9b196e	0.0757321
1	0x3de9eeb5	0.11422483
2	0xbe4d3a06	-0.20041665
3	0xbdc495ac	-0.0959886
4	0x3e2cf5df	0.16890667
5	0xbe4dea1b	-0.20108835
6	0xbe339401	-0.17536928
7	0x3d0d54ce	0.034504704
8	0xbe440dc1	-0.19145872
9	0x3de6dece	0.11272965
10	0x3d3e332a	0.046435513
11	0xbe220af4	-0.15824491
12	0x3d92e0ff	0.07171821
13	0x3e37cba2	0.17948774
14	0x3e35d25d	0.17756028
15	0xbe0b3ca2	-0.13597348
16	0x3de2df74	0.110777766
17	0x3d2d6198	0.0423294
18	0xbe473e1e	-0.1945729
19	0xbd55aec8	-0.052168638
20	0xbda7f979	-0.0820188
21	0x3db65fef	0.08905017
22	0x3e1269a0	0.14298105
23	0x3e1880d7	0.14892898
24	0xbe479f8b	-0.19494455
25	0xbde5e464	-0.11225203
26	0x3de0c434	0.10974923
27	0xbdeffac1	-0.117177494
28	0xbd9f3cfd	-0.077753045
29	0x3e12ffee	0.14355442
30	0xbcbcaf73	-0.02303288
31	0xbda54bde	-0.08071111
32	0x3e3aac26	0.18229732
33	0xbe137a99	-0.14402236
34	0x3e0bcb43	0.13651757
35	0xbe2f3a06	-0.17111978
36	0xbd3da61c	-0.046300992
37	0xbe0d6987	-0.13809787
38	0x3c765103	0.015033963
39	0x3e0bdd76	0.136587
40	0x3cb9e51a	0.022692252
41	0x3a6aadf4	0.00089523126
42	0xbdd8af9e	-0.10580371
43	0xbe106814	-0.14102203
44	0xbc5228d2	-0.012827115
45	0xbdea8569	-0.11451227
46	0x3cee2211	0.029068979
47	0x3b53534c	0.0032245694
48	0xbcd9af55	-0.026572863
49	0x3e3a5e44	0.18200022
50	0x3bf8c14b	0.0075914017
51	0xbce9bdf3	-0.028532958
52	0xbd9c5fae	-0.07635437
53	0x3daec184	0.08533004
54	0x3e2b66ab	0.16738383
55	0xbd8bae38	-0.06820339
56	0x3dffe92e	0.12495647
57	0x3e1fcfe1	0.15606643
58	0x3dd42b45	0.103598155
59	0xbe24aa65	-0.16080625
60	0xbd9e7956	-0.07737987
61	0xbe108e26	-0.14116725
62	0xbd111bca	-0.035426892
63	0x3e240461	0.16017295
64	0x3cace5b9	0.021105634
65	0x3d795f07	0.06088164
66	0x3d8e7b38	0.06957096
67	0xbd9eeda0	-0.07760167
68	0xbda8206b	-0.08209308
69	0xbc3a6720	-0.011377126
70	0xbe206544	-0.1566363
71	0xbd41f413	-0.047351908
72	0xbe126072	-0.14294603
73	0x3dfca831	0.123367675
74	0x3e079a97	0.13242565
75	0xbe2c7330	-0.16840816
76	0x3cc7980d	0.024364496
77	0x3d76c103	0.060242664
78	0x3d8f9005	0.070098914
79	0xbe15c650	-0.14626431
80	0xbe1b6588	-0.1517545
81	0xbd8cbe75	-0.06872264
82	0xbe40237c	-0.18763536
83	0x3cee89c0	0.029118419
84	0xbbc79be0	-0.00609158
85	0xbe1bf350	-0.15229535
86	0xbd94133e	-0.07230233
87	0x3e29c9e9	0.16580929
88	0x3e089a6b	0.13340156
89	0x3d7ecc34	0.062206462
90	0xbe193839	-0.14962853
91	0x3dda3b9e	0.10655902
92	0xbe0d9ea8	-0.13830054
93	0x3ddd76c6	0.1081367
94	0xbdd0b700	-0.101911545
95	0xbe1edffa	-0.15515128
96	0xbe41b6ed	-0.18917437
97	0xbe1627ea	-0.14663664
98	0xbd988ff1	-0.0744933
99	0xbe2bd80d	-0.16781636
100	0x3dfdf40e	0.12400065
101	0xbd79e9fc	-0.06101416
102	0x3c88ac80	0.016683817
103	0x3d90f37a	0.070776895
104	0xbe0910b2	-0.13385275
105	0x3c9252b0	0.017861694
106	0xbe0a8c58	-0.135301
107	0xbe1729ae	-0.14761993
108	0x3e3ee4af	0.18641923
109	0xbd1a4d30	-0.037671268
110	0xbe2a96e2	-0.1665912
111	0xbdd5c5c5	-0.10438112
112	0xbdb19cc4	-0.08672479
113	0xbe31da2f	-0.17368387
114	0xbc9ad611	-0.018900903
115	0xbd931057	-0.07180851
116	0xbd386124	-0.045014516
117	0xbd2a107e	-0.041519634
118	0x3db85744	0.090010196
119	0xbe080475	-0.1328295
120	0x3b1c8366	0.002388203
121	0x3d658a73	0.05604024
122	0xbccb7afb	-0.024838915
123	0x3ca7eeac	0.02049955
124	0x3e31be9b	0.17357866
125	0xbdff9f49	-0.12481553
126	0x3df7a93d	0.120928265
127	0x3e1198d9	0.14218463
128	0xbd855676	-0.06510632
129	0x3e2d4b27	0.169232
130	0x3da4bc57	0.080437355
131	0x3e160ac0	0.14652538
132	0xbd4edd5a	-0.050504066
133	0x3d2338c2	0.03984905
134	0xbdcbb1bd	-0.0994601
135	0x3e3909b4	0.18070108
136	0xbe0f627c	-0.14002413
137	0xbd140748	-0.036139756
138	0x3c8628b9	0.01637684
139	0xbe1bc7ac	-0.15212888
140	0xbe39939f	-0.18122719
141	0x3c48f530	0.0122654885
142	0xba645d1a	-0.0008711383
143	0xbdab2fb0	-0.08358705
144	0x3d4d15bb	0.050069552
145	0x3e0e10a6	0.13873538
146	0x3dae1fc7	0.08502155
147	0x3d320b88	0.04346803
148	0xbdf3d026	-0.119049355
149	0x3cf0c31b	0.029389909
150	0xbe18398f	-0.14865707
151	0x3d89c0e5	0.06726245
152	0xbe2896e1	-0.16463806
153	0x3e195f2e	0.14977714
154	0xbdc7a7ef	-0.09748828
155	0x3dc9d860	0.098557234
156	0x3e15d339	0.14631356
157	0xbdeb3394	-0.11484447
158	0xbe4b6d61	-0.19865943
159	0xbe030c86	-0.12797746
160	0x3d5bde54	0.053678825
161	0xbe1cb1af	-0.15302156
162	0xbe2cfd82	-0.1689358
163	0x3cf5c946	0.030003201
164	0x3e0fabe8	0.14030421
165	0x3df87af3	0.12132826
166	0x3e022e09	0.12712874
167	0x3dff3466	0.12461166
168	0xbb7310dc	-0.0037088906
169	0xbe2e33c1	-0.1701193
170	0x3c3e7b61	0.0116260955
171	0xbcfc7b84	-0.030820616
172	0xbd90256d	-0.070383884
173	0xbe036426	-0.12831172
174	0x3ceb2471	0.0287039
175	0x3dc728b0	0.097245574
176	0xbdb35438	-0.08756298
177	0xbdf1e37b	-0.118109666
178	0xbdef7f14	-0.1169416
179	0xbd6c674b	-0.057715695
180	0xbd6df867	-0.058098223
181	0x3d1dd596	0.03853377
182	0xbc775ab3	-0.015097308
183	0x3e26d76f	0.16293119
184	0xbdb1e77a	-0.08686729
185	0xbd0d36d6	-0.034476124
186	0x3dbd559f	0.092448466
187	0xbe2f7488	-0.17134297
188	0x3e00498a	0.12528053
189	0x3df28e09	0.11843497
190	0xbdcc77c8	-0.09983784
191	0xbdec3364	-0.115332395
192	0x3df35bb6	0.11882727
193	0xbdbbd62a	-0.09171708
194	0x3e252cf1	0.16130425
195	0xbcd82a11	-0.026387246
196	0x3e07c986	0.13260469
197	0xbc6f3860	-0.014600843
198	0xbe4b0203	-0.19824986
199	0x3e2bd281	0.1677952
200	0x3e06e9ab	0.13175075
201	0xbd6f5f87	-0.05844071
202	0x3e189c29	0.1490332
203	0x3d55b929	0.052178536
204	0x3dde28d9	0.10847635
205	0xbe170eaf	-0.14751695
206	0xbe385e56	-0.18004736
207	0x3ca9f637	0.020747287
208	0x3dd56f7a	0.10421653
209	0xbdb5a8b3	-0.088700674
210	0xbe1e1c25	-0.15440424
211	0x3d7113cf	0.05885678
212	0xbd814b4f	-0.06313192
213	0xbddebbb6	-0.10875647
214	0x3e224d09	0.15849699
215	0xbdc185b0	-0.09449327
216	0xbe0adce7	-0.1356083
217	0xbe11a818	-0.14224279
218	0x3e0f7bd4	0.1401208
219	0xbdf3cf76	-0.119048044
220	0xbdfdc7e1	-0.123916395
221	0x3df88bcd	0.1213604
222	0xbe2889f6	-0.16458878
223	0x3e105c0c	0.14097613
224	0x3e003528	0.12520278
225	0xbce587b4	-0.02801881
226	0x3d7ff656	0.062490784
227	0x3ce1db80	0.027570486
228	0x3c4b9276	0.012425056
229	0xbdf7fe3e	-0.1210904
230	0x3e450c16	0.19242892
231	0x3bd11c16	0.006381522
232	0xbe2d8812	-0.16946438
233	0x3e0315c6	0.12801275
234	0xbd4aca93	-0.049509596
235	0x3dd2f16a	0.10299952
236	0x3e4e8262	0.20166925
237	0x3d752d18	0.059857458
238	0xbdf3fde9	-0.11913664
239	0x3c991aec	0.018689595
240	0x3e1180a1	0.14209224
241	0x3d91869c	0.07105753
242	0xbda905a5	-0.0825303
243	0xbd18ec0d	-0.03733449
244	0x3dc5a2ec	0.096502155
245	0xbe2b1633	-0.16707687
246	0x3d84e360	0.06488681
247	0x3d2dc420	0.042423368
248	0xbd96757d	-0.07346628
249	0x3dce712f	0.10080182
250	0xbdf05125	-0.11734227
251	0x3dd67034	0.1047062
252	0x3e0f92cd	0.14020844
253	0x3e4037fb	0.18771355
254	0x3cd1f43d	0.025629157
255	0xbdce3dc8	-0.100703776

encoder.0.bias f4 [16]
0	0xbe4cbb4e	-0.19993326
1	0x3dbb7149	0.09152467
2	0x3e38e915	0.18057664
3	0xbc53c810	-0.012926117
4	0xbd4f881d	-0.050666917
5	0x3dd69949	0.104784556
6	0x3ba62ee6	0.0050715087
7	0xbe247520	-0.16060305
8	0xbd87ddbd	-0.0663409
9	0xbd6d1272	-0.05787892
10	0xbd1c1194	-0.0381027
11	0x3e467997	0.1938232
12	0xbdd0e0e2	-0.10199143
13	0x3e2d12a6	0.16901645
14	0x3e34b95f	0.17648838
15	0x3de4e19f	0.11175846

encoder.3.weight f4 [8, 16, 3, 3]
0	0x3cddd0c1	0.02707708
1	0xbd6bdb64	-0.057582274
2	0xbda37918	-0.07982081
3	0xba8bdb31	-0.0010670183
4	0x3c256e2f	0.010097071
5	0xbb10ce78	-0.0022095721
6	0xbd92c0f9	-0.07165713
7	0xbd92c3b4	-0.07166234
8	0xbd5c4426	-0.05377593
9	0xbd872161	-0.065981634
10	0xbd84b501	-0.06479836
11	0x3da65598	0.081217945
12	0x3d10f61c	0.03539096
13	0x3d3e3205	0.04643442
14	0x3d90e933	0.07075729
15	0x3d3400d8	0.043946117
16	0x3d475421	0.048664216
17	0x3d70baca	0.058771886
18	0x3d75c3c4	0.06000115
19	0x3d996302	0.07489587
20	0xbcfd04e3	-0.03088612
21	0xbd480943	-0.048836958
22	0x3d4684ac	0.04846637
23	0x3c199f52	0.009376364
24	0xbd310882	-0.043221004
25	0x3cc40aa9	0.023930864
26	0xbca45691	-0.02006081
27	0x3c266628	0.010156192
28	0x3d4c56b2	0.049887367
29	0xbc8b0134	-0.016968347
30	0x3c384e18	0.011249088
31	0x3c08a5e0	0.008340329
32	0x3c9e4ae4	0.01932282
33	0xbd9413af	-0.07230317
34	0xbd3c3a68	-0.045954138
35	0xbd96132f	-0.07327878
36	0xbcbcd911	-0.023052724
37	0x3c923709	0.017848508
38	0x3d4c3de4	0.04986371
39	0x3c357f89	0.01107777
40	0x3bcf0b90	0.006318517
41	0x3c3adce7	0.011405206
42	0xbd030ea3	-0.03199638
43	0x3bf0b08f	0.007345266
44	0x3cec0989	0.02881314
45	0x3c971138	0.018440828
46	0xbd3f37a0	-0.046683908
47	0xbc5c030e	-0.013428463
48	0x3dacda64	0.08440092
49	0xbcefdef0	-0.02928111
50	0x3d8a189b	0.06742974
51	0xbcc4bff4	-0.024017312
52	0x3cc2c836	0.023777109
53	0xbd9329f8	-0.07185739
54	0x3d5b8ac2	0.053599127
55	0xbd4056f8	-0.04695794
56	0xbd564948	-0.05231598
57	0x3d4798d0	0.048729718
58	0xbd2a7cc5	-0.041622896
59	0x3db2c541	0.087290294
60	0xbda7443d	-0.08167312
61	0x3c8613e8	0.016366914
62	0xbd8b8294	-0.06812015
63	0x3ce94800	0.028476715
64	0x3d65784d	0.05602293
65	0x3d5e5dee	0.054288797
66	0x3d65cb3a	0.056102015
67	0xbd8f0d79	-0.069849916
68	0xbc8aee5c	-0.016959362
69	0xbc59e118	-0.013298295
70	0x3c6e96ce	0.014562322
71	0x3c9bf020	0.019035399
72	0xbc6f4aaa	-0.014605204
73	0x3c4143fc	0.011795994
74	0xbd1e49b9	-0.038644526
75	0xbcf844e6	-0.03030629
76	0xbd5d9330	-0.054095447
77	0x3c41b42c	0.0118227415
78	0xbc3b210e	-0.011421455
79	0x3da4a889	0.08039958
80	0xbcb65279	-0.022256123
81	0xbc468c56	-0.01211842
82	0x3ca38161	0.019959154
83	0x3dac0a31	0.08400381
84	0x3da30ec2	0.07961799
85	0xbd073647	-0.033010747
86	0x3c271758	0.010198437
87	0x3d7ca0f3	0.06167693
88	0xbd5c7328	-0.05382076
89	0xbd4a8823	-0.049446236
90	0x3d392992	0.04520566
91	0xbd336e47	-0.04380634
92	0xbd9142d4	-0.070928246
93	0x3c9968fa	0.018726815
94	0xbc9da87e	-0.019245382
95	0xbd78ced9	-0.06074414
96	0x3c36338b	0.011120687
97	0xbd10d043	-0.035354864
98	0xbd957c04	-0.07299045
99	0xbd86ebb7	-0.06587928
100	0x3d202de1	0.039106254
101	0x3d840f09	0.0644818
102	0x3dad4a28	0.0846141
103	0xbd68f7c9	-0.05687693
104	0x3cb594bf	0.022165654
105	0x3b3e8eea	0.0029076883
106	0x3d24c7ea	0.040229715
107	0x3d8cf7ac	0.06883177
108	0xbc906d61	-0.01763028
109	0x3cbddd7f	0.023176907
110	0xbbcca6d2	-0.0062454725
111	0xbc3aa703	-0.011392358
112	0xbcced931	-0.02525005
113	0xbd08244b	-0.033237737
114	0x3bda84f3	0.006668681
115	0xbb9d6e27	-0.004804391
116	0xbd55064e	-0.052007966
117	0x3d3606ce	0.044440083
118	0x3da78a24	0.08180645
119	0x3da9ab50	0.082846284
120	0x3d14e554	0.036351517
121	0xbd825730	-0.06364286
122	0xbd013458	-0.03154406
123	0xbc3e6ecc	-0.011623096
124	0x3d1bd6c4	0.038046613
125	0x3ca6a96e	0.020344462
126	0x3d9771fa	0.07394786
127	0xbd24c1d5	-0.040223915
128	0xbd7b1c18	-0.06130609
129	0x3c81adc9	0.015829938
130	0x3d9a4fad	0.07534728
131	0x3c4a3130	0.012340829
132	0x3da55201	0.08072282
133	0xbc473b3c	-0.012160119
134	0x3c3379da	0.010954345
135	0xbd8759e7	-0.066089444
136	0xbc5c0620	-0.013429195
137	0xbd2cd84b	-0.04219846
138	0x3d984f83	0.07437041
139	0xbd92bcea	-0.07164939
140	0xbc2e8840	-0.010652602
141	0xbd70f174	-0.058824018
142	0xbd1dc142	-0.038514383
143	0x3cdd471c	0.027011447
144	0x3d20d205	0.03926279
145	0xbbbcd02c	-0.0057621207
146	0xbc91b58e	-0.017786767
147	0xbd4cbf6e	-0.04998725
148	0x3d23c500	0.039982796
149	0xbc31d4dc	-0.010853972
150	0xbc9e4374	-0.019319274
151	0x3ac89249	0.0015302385
152	0xbd52c10c	-0.051453635
153	0x3d86b7c2	0.06578018
154	0x3cb5ef19	0.022208737
155	0xbd6d0e4a	-0.057874955
156	0xbcecf448	-0.028925076
157	0x3b84ab44	0.0040487368
158	0xbd08e4a0	-0.03342116
159	0x3d4d4d36	0.050122462
160	0xbd6da385	-0.058017273
161	0xbd93cdc4	-0.07216981
162	0x3daf7386	0.08566956
163	0x3cb36dcb	0.02190294
164	0x3dc41bee	0.0957564
165	0xbce91bd6	-0.028455656
166	0xbcf0c383	-0.029390102
167	0xbc0fed1b	-0.008784558
168	0x3d8f9075	0.07009975
169	0x3d26a276	0.04068228
170	0x3bcf6bef	0.0063300054
171	0xbd810630	-0.06300008
172	0x3d5d949a	0.054096796
173	0xbcc94b20	-0.024571955
174	0x3c6cb900	0.014448404
175	0xbd41122b	-0.047136467
176	0xbd8de7d6	-0.06928985
177	0xbd90ffb6	-0.07080023
178	0x3d1e757e	0.038686268
179	0x3d781372	0.06056542
180	0x3dab1e20	0.08355355
181	0x3cfd73e2	0.030939046
182	0xbd3f46b8	-0.046698302
183	0x3d8eabad	0.06966338
184	0x3c40a0e2	0.011757107
185	0x3db19c61	0.08672405
186	0x3d73a80b	0.05948643
187	0x3d7204e7	0.059086706
188	0xbd042dae	-0.032270126
189	0xbd7f8578	-0.062383145
190	0x3db490bc	0.088166684
191	0xbd6dda2f	-0.058069404
192	0xbc82c03f	-0.01596081
193	0xbd2cce92	-0.04218919
194	0xbcd2746b	-0.025690278
195	0xbd1281ae	-0.035768203
196	0x3dc0614d	0.09393559
197	0xbb633eba	-0.003467484
198	0xbdae1721	-0.08500505
199	0xbd5cafd4	-0.05387862
200	0x3cddd14a	0.027077336
201	0xbd0a3c27	-0.033748772
202	0xbc9d5aed	-0.019208396
203	0x3b52decf	0.0032176261
204	0xbd21a234	-0.03946133
205	0xbcf3e875	-0.02977393
206	0x3d8d5b14	0.069021374
207	0x3db3d269	0.08780367
208	0xbd219e42	-0.039457567
209	0xbd304810	-0.043037474
210	0xbcadff83	-0.021240002
211	0x3d4e518e	0.050370745
212	0xbd118f6e	-0.035537176
213	0x3d641ce0	0.0556916
214	0xbd4b6913	-0.049660753
215	0x3d43b121	0.047776345
216	0x3d90c767	0.07069283
217	0xbd1ee566	-0.03879299
218	0xbc806d66	-0.015677165
219	0x3d52e6a7	0.0514895
220	0x3d976e4c	0.07394084
221	0xbc89543f	-0.016763804
222	0xbc8d8dd1	-0.017279537
223	0xbc0e812e	-0.008697791
224	0x3d612990	0.054971278
225	0x3db07688	0.08616358
226	0xbcfcf92d	-0.030880535
227	0x3d9ab1e4	0.07553461
228	0xbc8dddf1	-0.017317744
229	0xbd7b03ef	-0.06128305
230	0xbd520465	-0.051273722
231	0x3dcd2d32	0.10018386
232	0x3ce4fe43	0.027953273
233	0x3c9ba6e9	0.019000487
234	0xbd32df21	-0.043669824
235	0x3ca516fd	0.020152563
236	0x3d37bc20	0.044857144
237	0x3dcb015b	0.09912368
238	0xbcb8ecfa	-0.022573937
239	0x3d98c7a4	0.074599534
240	0x3d2f50fd	0.042801846
241	0xbd6df1b3	-0.05809183
242	0x3cc6d032	0.024269197
243	0x3da2bfbf	0.07946729
244	0x3da8806c	0.082276195
245	0x3d2b95c6	0.041890882
246	0x3d28e3b2	0.041232772
247	0x3cc3d7d4	0.023906626
248	0x3d182476	0.037144147
249	0xbd38e91a	-0.045144178
250	0xbd75712f	-0.059922393
251	0x3d9d95a9	0.07694561
252	0xbd14ec12	-0.036357947
253	0x3d8b1be0	0.06792426
254	0x3dbcc895	0.092179455
255	0x3cb22229	0.021744804

encoder.3.bias f4 [8]
0	0x3d6a83ac	0.05725448
1	0x3dc3a774	0.095534235
2	0xbc1b37aa	-0.009473721
3	0x3d0334a4	0.032032624
4	0x3d9d8fd1	0.076934464
5	0xbcbbb114	-0.022911586
6	0xbd3ab043	-0.045578253
7	0x3d048655	0.03235467

decoder.0.weight f4 [8, 16, 3, 3]
0	0x3cb411a1	0.021981062
1	0xbd21524e	-0.039385132
2	0xbc81a321	-0.015824856
3	0x3d5b3433	0.053516578
4	0xbcd9bb72	-0.026578639
5	0x3d68c6c8	0.056830198
6	0xbd0c2977	-0.03421923
7	0xbd932e5b	-0.07186576
8	0xbd216001	-0.039398197
9	0xbd70bd5c	-0.058774337
10	0x3cf7e113	0.030258691
11	0xbcf1030c	-0.029420398
12	0x3d88db73	0.066824816
13	0x3d729c06	0.059230827
14	0x3dbc5da7	0.0919755
15	0x3d3cfe23	0.0461408
16	0x3d1042f2	0.035220094
17	0xbd88c1bf	-0.06677579
18	0xbd887bd7	-0.066642456
19	0x3c2cb2e8	0.010540701
20	0x3c52eba8	0.012873568
21	0x3c1e15e0	0.00964877
22	0xbc2a11d8	-0.010380231
23	0xbd9c7798	-0.07639998
24	0xbda83e13	-0.08214965
25	0x3c64b298	0.013958596
26	0x3d91599d	0.070971705
27	0xbc1f5320	-0.009724408
28	0x3d747af2	0.059687562
29	0xbd585e9b	-0.052824598
30	0xbd7730f0	-0.060349405
31	0x3d11ee76	0.035627805
32	0x3b5c2ba0	0.0033595338
33	0x3d11b31a	0.035571195
34	0x3d84cbcb	0.06484183
35	0xbd964ffb	-0.07339474
36	0xbd82a886	-0.063797995
37	0x3caf1c04	0.021375664
38	0xbd7be4a6	-0.061497353
39	0xbb197f88	-0.0023421962
40	0x3d3b2117	0.045685854
41	0xbceb74b2	-0.028742168
42	0xbdba3499	-0.090920635
43	0x3da95971	0.08269013
44	0x3d527942	0.05138517
45	0xbd307579	-0.04308078
46	0xbca05013	-0.019569432
47	0x3d8c2d87	0.06844621
48	0x3d4c699b	0.0499054
49	0x3d3b9656	0.04579767
50	0xbda49915	-0.080370106
51	0xbd3a0e8b	-0.045424026
52	0x3d060b1e	0.032725446
53	0xbd87bb26	-0.066274926
54	0x3c4d9f30	0.01255016
55	0x3d23ecc6	0.040020727
56	0x3d202664	0.039099112
57	0x3dc5169d	0.09623454
58	0xbc875cd9	-0.016523765
59	0xbd5f62af	-0.05453747
60	0x3b3ea86f	0.0029092093
61	0x3d1427fb	0.03617094
62	0xbcce97c6	-0.025218856
63	0xbc991e74	-0.018691279
64	0x3bd977f3	0.0066366135
65	0x3da7feb5	0.082028784
66	0xbc7a00af	-0.015258952
67	0xba17819f	-0.0005779508
68	0x3c55f289	0.013058313
69	0x3d1e7bf7	0.03869244
70	0x3c72af14	0.01481225
71	0x3d4e266a	0.050329603
72	0xbd8baea5	-0.0682042
73	0x3d6b1994	0.05739744
74	0x3d4ab52a	0.049489178
75	0xbce5bd5a	-0.028044391
76	0x3b8a1139	0.004213479
77	0xbda282ae	-0.079350814
78	0xbca5a835	-0.020221809
79	0x3d596b8f	0.05308109
80	0xbcfb8728	-0.030704096
81	0xbcee33d0	-0.02907744
82	0xbda564e3	-0.08075883
83	0xbd432803	-0.04764558
84	0x3d5e5686	0.054281734
85	0xbd810524	-0.062998086
86	0x378d5000	1.6845763e-05
87	0x3c2f54f8	0.0107014105
88	0xbd397250	-0.045275033
89	0xbc4999c0	-0.012304723
90	0xbc36dcd6	-0.01116105
91	0xbda5e0ce	-0.08099519
92	0x3d33d399	0.043902967
93	0xbd3056f1	-0.043051664
94	0x3d9c0a4d	0.07619152
95	0xbc7c01b3	-0.0153812645
96	0x3da63b2f	0.08116757
97	0x3caf3a54	0.021390118
98	0xbd08d9c6	-0.03341081
99	0x3bd818a9	0.0065947366
100	0xbda3e161	-0.08001972
101	0xbc90e8fb	-0.017689219
102	0x3dbf5a51	0.09343398
103	0xbd8f69b7	-0.070025854
104	0xbbf08ff8	-0.007341381
105	0xbd070b7f	-0.032969948
106	0x3c1a270f	0.009408726
107	0xbd955c97	-0.07293051
108	0x3d8e9529	0.06962044
109	0xbd3f6f4f	-0.04673701
110	0xbccf0110	-0.025269061
111	0xbda44b6f	-0.080222
112	0xbd9fef77	-0.07809346
113	0xbd063740	-0.032767534
114	0x3d7d884f	0.061897572
115	0x3d2ca1b7	0.04214641
116	0xbc2f8bbe	-0.0107144695
117	0xbd82d35c	-0.0638797
118	0xbcfffbec	-0.031248055
119	0xbd2d088e	-0.042244487
120	0xbb871b80	-0.0041231513
121	0xbc308000	-0.010772705
122	0xbd5ce9a3	-0.05393375
123	0x3d23a518	0.039952368
124	0x3d95fdc4	0.073237926
125	0xbcb84cf0	-0.022497624
126	0x3d7061cd	0.05868702
127	0x3d9d617c	0.07684609
128	0xbd1aca1d	-0.037790406
129	0x3b415ea3	0.002950587
130	0xbd3923ec	-0.045200273
131	0x3d498b0b	0.049204867
132	0x3d2db5ed	0.042409826
133	0xbd7a2260	-0.06106794
134	0x3d89b34c	0.06723651
135	0xbd864f9a	-0.065581515
136	0x3b9493ea	0.0045342343
137	0x3d6314a4	0.055439606
138	0x3b3102eb	0.0027009796
139	0xbd6d5181	-0.057939056
140	0x3d8451a0	0.06460881
141	0x3d78c75b	0.060736995
142	0xbd759666	-0.059957884
143	0xbd9b13f1	-0.07572163
144	0xbd79a107	-0.060944583
145	0x3d6393cb	0.05556087
146	0x3da7fdcd	0.082027055
147	0xbd0a6ad9	-0.033793304
148	0x3d4d5b39	0.050135825
149	0x3cacaeaa	0.02107938
150	0xbd59b6ae	-0.053152733
151	0x3db9af02	0.09066583
152	0x3d9cbb48	0.076529086
153	0x3dab744d	0.08371792
154	0xbd903e01	-0.07043076
155	0xbb99d19a	-0.004694176
156	0x3a333b32	0.0006837129
157	0x3b37580a	0.002797606
158	0xbd119c49	-0.035549436
159	0xbccf3820	-0.025295317
160	0xbc670333	-0.014099884
161	0x3dcabdfe	0.098995194
162	0x3cda7c40	0.026670575
163	0x3d7c8bb2	0.06165666
164	0xbd920293	-0.07129397
165	0xbd2ffacb	-0.042963784
166	0x3d5d8776	0.054084264
167	0xbb7b6d80	-0.0038364828
168	0x3d8ec9f9	0.06972117
169	0x3d609487	0.054829147
170	0x3c145728	0.009053983
171	0x3cef77c0	0.029231906
172	0xbb18b3a0	-0.0023300424
173	0xbb8afe90	-0.004241772
174	0xbbf13f50	-0.0073622838
175	0xbc97b42c	-0.01851853
176	0xbcf12676	-0.029437285
177	0xbd12a573	-0.035802316
178	0x3c11f2c8	0.008907981
179	0x3da38e39	0.07986111
180	0xbd893944	-0.06700376
181	0xbd93939b	-0.07205888
182	0x3c94f194	0.0181816
183	0xbd15e750	-0.03659755
184	0x3d80ffed	0.06298814
185	0x3d38bacd	0.045100022
186	0x3cb09907	0.021557344
187	0xbaf34a00	-0.0018561482
188	0x3d229d40	0.039700747
189	0x3d4beeb7	0.049788203
190	0xbda94569	-0.08265192
191	0xbda303a5	-0.079596795
192	0x3d854f55	0.06509272
193	0xbd1deb43	-0.03855444
194	0xbc91af3b	-0.017783752
195	0xbc8d7c18	-0.017271087
196	0x3c253118	0.010082506
197	0xbc0d9088	-0.008640416
198	0xbd5e0839	-0.05420706
199	0xbcc5f2b3	-0.02416358
200	0x3d73f476	0.059559308
201	0x3cf9d3a6	0.03049643
202	0x3ce13217	0.027489705
203	0x3cb7d123	0.022438591
204	0x3cfbbc3c	0.030729406
205	0xbd240e25	-0.04005255
206	0xbd0a6424	-0.033786908
207	0xbd7c484d	-0.06159239
208	0xbd7ec235	-0.06219693
209	0x3d8717ef	0.06596362
210	0x3d9c3896	0.076279804
211	0x3d65b61c	0.056081876
212	0xbc5479b8	-0.012968473
213	0x3d80bc0e	0.062858686
214	0x3d83d8a6	0.06437807
215	0x3c15d1c4	0.00914425
216	0xbd1c5c54	-0.03817399
217	0x3c9133d7	0.017724914
218	0xbc8ca285	-0.01716734
219	0x3c940d14	0.018072642
220	0xbdcad44b	-0.09903773
221	0x3d5a1e03	0.053251278
222	0x3d50249c	0.050816163
223	0xbc1438c2	-0.009046735
224	0xbc89497e	-0.016758677
225	0x3d407d23	0.04699434
226	0x3c5be3f8	0.013421051
227	0x3d2661ef	0.04062074
228	0x3d6c87de	0.05774676
229	0x3d773dee	0.060361795
230	0xbd001da8	-0.031278282
231	0xbc875c54	-0.016523518
232	0xbd0a259e	-0.03372728
233	0xbd1761ba	-0.036958434
234	0xbcedc49d	-0.029024417
235	0xbd90391e	-0.07042144
236	0xbd3e272e	-0.046424083
237	0x3c7c4976	0.015398374
238	0xba6e3200	-0.000908643
239	0x3d320630	0.043462932
240	0x3d34b1f3	0.044115018
241	0x3b9f4f0d	0.0048617185
242	0x3d65cc50	0.05610305
243	0xbabbddb6	-0.0014333043
244	0x3b4546f3	0.0030102103
245	0xbcf994c1	-0.03046644
246	0x3d6852b1	0.056719486
247	0xbc3af8f2	-0.011411892
248	0xbdcb3cf2	-0.09923734
249	0xbae18f8c	-0.0017208918
250	0x3d7c6d47	0.061627652
251	0x3cb887b1	0.02252564
252	0x3d77b52d	0.060475517
253	0x3d24799f	0.04015505
254	0x3d1f1aad	0.0388438
255	0xbd38e81b	-0.045143228

decoder.0.bias f4 [16]
0	0x3d01c576	0.031682454
1	0x3bfb9994	0.00767822
2	0xbda39778	-0.07987875
3	0xbd8c19e7	-0.06840878
4	0xbc9393d2	-0.018014822
5	0xbc4b30c5	-0.012401764
6	0x3c96488a	0.018345136
7	0x3d128d4b	0.03577928
8	0x3cf759ae	0.03019413
9	0xbd8fa245	-0.07013372
10	0xbc6994f5	-0.0142567055
11	0x3ce5c2bd	0.02804696
12	0xbcb96856	-0.022632759
13	0xbd560718	-0.05225286
14	0x3d7da0bf	0.061920878
15	0x3ba79d65	0.0051151984

decoder.2.weight f4 [16, 3, 3, 3]
0	0xbe1f3334	-0.15546876
1	0xbe3bf74a	-0.18356052
2	0xbe290575	-0.16505988
3	0x3d901e6e	0.07037054
4	0x3cb1a768	0.02168627
5	0xbe34778e	-0.17623731
6	0x3d848b9a	0.064719394
7	0x3e084413	0.13307218
8	0xbdf57361	-0.119848974
9	0x3b56f034	0.003279698
10	0xbe0905fe	-0.13381192
11	0xbd2c9af8	-0.042139977
12	0x3c0d48e1	0.008623333
13	0xbe1f6380	-0.155653
14	0x3c566b5e	0.013087122
15	0xbe03c6a0	-0.12868738
16	0x3d10d3b7	0.035358157
17	0x3c694abd	0.01423901
18	0xbd53b104	-0.051682487
19	0xbe36c50a	-0.17848602
20	0xbd78d668	-0.06075135
21	0x3e333dcc	0.17504042
22	0x3c65c44b	0.014023851
23	0x3e214086	0.1574727
24	0x3e0efb66	0.13963088
25	0x3e3c248f	0.18373321
26	0xbc9d1bfe	-0.019178387
27	0x3e018b58	0.12650812
28	0x3e09675d	0.13418336
29	0xbe35eb2d	-0.17765494
30	0xbd986b8f	-0.0744239
31	0x3e249f0a	0.16076294
32	0xbcc6ff9e	-0.02429181
33	0xbddec5bd	-0.10877559
34	0xbdb25ae4	-0.08708742
35	0x3d5c6faa	0.05381743
36	0x3e1c377b	0.15255539
37	0xbd8f009c	-0.06982538
38	0xbdb67d26	-0.08910589
39	0x3e1c3ef4	0.1525839
40	0xbe2a8d2f	-0.1665542
41	0xbd0b49a3	-0.034005772
42	0xbdb061b2	-0.08612384
43	0xbdabe8ee	-0.08394037
44	0x3c7f9559	0.015599572
45	0xbe27b1cf	-0.16376422
46	0xbb2a69d4	-0.002600302
47	0x3d9806c7	0.07423168
48	0x3cd28ee7	0.025702907
49	0xbe012769	-0.1261269
50	0xbdcc003c	-0.09960982
51	0xbdae3244	-0.08505681
52	0x3cb29ca8	0.021803215
53	0x3dd5b4a6	0.104348466
54	0x3e31cdb9	0.17363633
55	0x3e2d5177	0.16925608
56	0xbe11cb0e	-0.14237615
57	0x3e1487d8	0.14504945
58	0x3e0744bd	0.13209815
59	0x3d8dda69	0.06926424
60	0xbcedc027	-0.02902229
61	0x3cb10d36	0.021612745
62	0x3e1a9187	0.15094577
63	0x3e11ab90	0.14225602
64	0x3e055f5b	0.13024656
65	0x3d4ccfa6	0.050002716
66	0xbe21a7f0	-0.1578672
67	0xbe23a970	-0.15982604
68	0x3defbc8d	0.11705885
69	0x3d83e58c	0.06440267
70	0x3ca9c2f3	0.020722842
71	0x3c537bb0	0.012907907
72	0xbcb2caf2	-0.021825287
73	0x3d8c1a38	0.06840938
74	0x3c394766	0.011308527
75	0xbd787ccc	-0.06066589
76	0x3dba606b	0.091004215
77	0x3d53cb5e	0.051707618
78	0x3d7278b3	0.05919714
79	0xbe1d216b	-0.15344779
80	0xbd206559	-0.039159153
81	0xbd4338d4	-0.047661617
82	0x3da5ac46	0.08089499
83	0x3d008158	0.03137335
84	0xbdc16547	-0.09443145
85	0xbd2fea18	-0.04294786
86	0xbd71cfd4	-0.05903609
87	0xbd207244	-0.039171472
88	0xbe0b3a82	-0.13596538
89	0xbd65a4e4	-0.056065455
90	0x3e2213df	0.15827893
91	0x3deb000e	0.1147462
92	0xbd5e4b60	-0.054271102
93	0xbe0e8645	-0.13918407
94	0x3cdba628	0.026812628
95	0xbd4e8b4c	-0.050425813
96	0x3e14ca87	0.14530383
97	0xbdaeb9ce	-0.08531533
98	0x3badea60	0.0053074807
99	0xbe132a44	-0.14371592
100	0xbcd2d930	-0.025738329
101	0xbd81766e	-0.06321417
102	0xbe2b16fd	-0.16707988
103	0xbe0b3bd8	-0.13597047
104	0xbb850880	-0.004059851
105	0xbc9af018	-0.018913314
106	0x3b6e5980	0.0036369264
107	0xbd9385e0	-0.07203269
108	0x3df8da45	0.121510066
109	0xbd4c49c9	-0.049875055
110	0xbd8b5cd5	-0.06804816
111	0xbe1790db	-0.14801352
112	0xbe2c6c3f	-0.16838168
113	0x3e0daeb8	0.13836181
114	0x3e056759	0.13027705
115	0xbe1c7b1b	-0.15281336
116	0x3b8c1721	0.004275218
117	0x3cbd5125	0.023109982
118	0xbdadd5ae	-0.08488022
119	0xbe2b8f2f	-0.16753839
120	0x3d525c62	0.051357634
121	0xbdae5f70	-0.08514297
122	0x3c02a0ba	0.0079728905
123	0xbd89d1b9	-0.067294545
124	0x3e4516ea	0.19247022
125	0xbd2b49bc	-0.041818365
126	0x3db709fc	0.08937451
127	0xbe399020	-0.18121386
128	0x3e3e0b04	0.1855889
129	0x3cf38ec4	0.029731162
130	0x3e4e6947	0.20157348
131	0x3dee9327	0.11649161
132	0x3b139c08	0.0022523422
133	0xbe143aec	-0.14475602
134	0x3c6e31a8	0.014538206
135	0xbe1fc80e	-0.15603659
136	0xbd8cf6c9	-0.06883008
137	0x3da70bc9	0.08156545
138	0x3e384d0e	0.17998144
139	0xbdef54f9	-0.11686129
140	0x3d1db0e4	0.038498774
141	0xbd50aa75	-0.05094381
142	0x3de809c9	0.11329991
143	0x3dca5451	0.09879363
144	0xbe1139db	-0.14182226
145	0x3e281e4a	0.16417804
146	0xbbf95126	-0.0076085506
147	0xbd6f5a6b	-0.05843584
148	0x3c613610	0.0137458
149	0xbdb2082c	-0.08692965
150	0x3e31cfee	0.17364475
151	0x3e20eb12	0.15714672
152	0xbca49e06	-0.020094883
153	0x3e335d75	0.1751612
154	0xbd7916da	-0.06081281
155	0xbd1b5097	-0.037918653
156	0xbd057b18	-0.032588094
157	0x3debc1fb	0.11511608
158	0xbdc539a3	-0.09630134
159	0x3d006e61	0.031355266
160	0xbe022a16	-0.12711367
161	0x3c665936	0.0140593555
162	0x3d2fbd80	0.04290533
163	0xbdb67ab4	-0.089101225
164	0x3d95e91b	0.07319852
165	0x3dd00960	0.10158038
166	0xbe47ca19	-0.19510688
167	0xbe2da713	-0.16958265
168	0xbe0f9678	-0.14022243
169	0x3cc38c11	0.0238705
170	0xbd724e3c	-0.05915664
171	0x3c3c0560	0.011475891
172	0xbdee29f7	-0.11629098
173	0xbd8857ec	-0.06657395
174	0x3d5d16a2	0.053976662
175	0xbca12748	-0.019672051
176	0xbdd857b9	-0.10563607
177	0x3d08520d	0.033281375
178	0x3d72d6ad	0.059286762
179	0x3e0daf51	0.13836409
180	0xbe453fa1	-0.19262554
181	0xbd9cda72	-0.07658853
182	0x3d039796	0.032126985
183	0xbd08cd56	-0.03339895
184	0x3e0182f3	0.1264761
185	0xbd5ab13e	-0.053391688
186	0x3d954603	0.07288744
187	0xbd038490	-0.032108843
188	0x3cc7ea25	0.024403641
189	0xbe06ce7b	-0.13164704
190	0xbcb7e534	-0.02244816
191	0xbcbff0ed	-0.023430312
192	0xbaa87966	-0.0012853562
193	0xbe2e5a7c	-0.17026705
194	0xbd530314	-0.051516607
195	0xbe3bc882	-0.18338206
196	0x3bc73318	0.006079089
197	0x3dbc9c9d	0.09209559
198	0x3cadb661	0.02120513
199	0x3da098ce	0.07841645
200	0x3d7f4bc3	0.06232811
201	0xbdd7eeb9	-0.105435796
202	0x3caa2bf1	0.020772906
203	0x3c80444d	0.015657568
204	0x3e27d4ff	0.16389845
205	0xbd11c847	-0.03559139
206	0xbe0c9f9d	-0.13732763
207	0xbe3e9f96	-0.18615565
208	0x3d86569d	0.06559489
209	0xbe3420c8	-0.1759063
210	0xbe46d0f6	-0.1941565
211	0x3dc2b0cc	0.095063776
212	0xbd3c36dc	-0.045950755
213	0xbce08c83	-0.027410751
214	0x3ceac3a3	0.02865774
215	0xbe1d8d63	-0.15385966
216	0x3e22383d	0.15841766
217	0xbde59368	-0.11209756
218	0xbd67bf5e	-0.056578986
219	0xbc481bf1	-0.012213693
220	0xbd72bac2	-0.059260137
221	0x3e298726	0.16555461
222	0x3d7921c4	0.060823217
223	0x3df7d9d5	0.12102095
224	0x3d6b43f0	0.057437837
225	0xbe0a5e84	-0.13512617
226	0xbe04e870	-0.12979293
227	0xbd2beedc	-0.04197584
228	0xbe3a9332	-0.18220213
229	0xb7be6e03	-2.2700993e-05
230	0x3e051cbb	0.12999241
231	0xbde3e081	-0.11126805
232	0x3ca86c5d	0.020559484
233	0xbd73d4a7	-0.059528973
234	0xbe0e897a	-0.1391963
235	0x3e24d59c	0.1609711
236	0x3e415174	0.18878728
237	0x3d402745	0.04691245
238	0x3e2b3af3	0.16721706
239	0xbd12007e	-0.035645
240	0xbe20858d	-0.15675946
241	0x3e1dd2f1	0.15412499
242	0x3d1e4781	0.03864241
243	0x3e2c7fe7	0.16845666
244	0x3dd05a25	0.10173444
245	0xbe172a0f	-0.14762138
246	0xbe15a277	-0.14612757
247	0x3cfb5315	0.030679265
248	0x3df84714	0.12122932
249	0x3e3366b1	0.17519642
250	0x3e1aa306	0.15101251
251	0xbd3cecd5	-0.046124298
252	0xbe2b9f94	-0.16760093
253	0x3e03a907	0.12857448
254	0x3e2c16b6	0.16805539
255	0x3e245d97	0.16051327

decoder.2.bias f4 [3]
0	0x3be39543	0.0069452836
1	0xbd723a58	-0.059137672
2	0xbe4074f4	-0.18794614
